model/checkpoint.pth (torch_old, 2073 bytes, 4 tensors)

fc1.weight f4 [64, 2]
-0.34307185 0.28970015 -0.55757844 -0.042778473 0.26857802 -0.03531363 0.61122024 -0.6760988
-0.6546984 -0.6869449 -0.16905439 0.2651813 -0.27036273 0.41141826 0.24856979 -0.06477934
-0.49702546 -0.32139355 0.71150327 0.34782743 -0.31173694 -0.38384402 0.5319593 -0.071735114
0.5797195 0.020416807 0.33813804 -0.0166561 -0.48880732 -0.09326751 -0.73809415 -0.80794156
0.012279837 -0.24618497 -0.38722676 -0.15629533 0.6392317 -0.6172201 -0.08943981 -0.15462399
0.0410828 0.10808641 0.5705361 -0.19809018 0.122516274 0.13435924 -0.46424556 -0.26297557
0.6795209 -0.3389287 0.35930365 0.61176896 -0.41447502 -0.72996795 -0.6248297 0.04237172
0.069365874 0.5496296 -0.03567282 0.47246757 0.4004789 -0.36103007 0.8007143 -0.095197394
-0.49757144 0.8067999 -0.2643259 0.10261989 -0.5734404 -0.58352697 -0.7310467 0.1452514
0.5543815 0.37455675 0.38102704 -0.72865903 0.04061796 -0.50838655 0.38569644 -0.65937644
-0.6028838 -0.6704738 0.17596754 -0.370589 -0.7543837 -0.67473435 0.10439991 0.25789115
0.35906947 -0.45558858 0.51215476 -0.81839514 0.62405485 0.7932527 0.5584433 -0.80541444
0.14892805 0.4383943 -0.2833958 -0.09425449 -0.76079637 0.5202541 0.6997299 -0.25230032
0.4063643 -0.33477074 0.7049155 0.28182727 -0.04675013 0.02720797 -0.43842205 0.22181408
0.49182332 0.27199906 0.6142836 0.43703035 0.6305067 -0.5869851 -0.54878175 -0.2912413
0.61878693 0.3285962 -0.2712733 0.74689764 0.08665646 0.42299592 -0.5225121 -0.30032438
00000000: 1da7 afbe 9453 943e 76bd 0ebf 7b38 2fbd
00000010: 0f83 893e 06a5 10bd ee78 1c3f d014 2dbf
00000020: 509a 27bf 9fdb 2fbf 981c 2dbe d8c5 873e
00000030: fc6c 8abe 6aa5 d23e 1489 7e3e 08ab 84bd
00000040: 1f7a febe b28d a4be 1425 363f 7016 b23e
00000050: fc9b 9fbe 3487 c4be 7c2e 083f dce9 92bd
00000060: 7f68 143f 2641 a73c 6e20 ad3e 6072 88bc
00000070: f444 fabe 0903 bfbd bdf3 3cbf 42d5 4ebf
00000080: 5f31 493c ea17 7cbe 9642 c6be e20b 20be
00000090: b0a4 233f 2302 1ebf 382c b7bd c055 1ebe
000000a0: 7046 283d 685c dd3d a70e 123f 27d8 4abe
000000b0: d0e9 fa3d 7895 093e 98b1 edbe bca4 86be
000000c0: 15f5 2d3f 1088 adbe a6f6 b73e e49c 1c3f
000000d0: 1236 d4be 2edf 3abf d7f4 1fbf f88d 2d3d
000000e0: b20f 8e3d 87b4 0c3f aa1d 12bd 45e7 f13e
000000f0: 920b cd3e efd8 b8be 9dfb 4c3f daf6 c2bd
00000100: afc1 febe 708a 4e3f b955 87be 602a d23d
00000110: fdcc 12bf 0662 15bf e025 3bbf c8bc 143e
00000120: f2eb 0d3f e7c5 bf3e fa15 c33e 6689 3abf
00000130: 055f 263d 9f25 02bf 017a c53e e5cc 28bf
00000140: 9856 1abf 2ca4 2bbf d630 343e d7bd bdbe
00000150: 4a1f 41bf 64bb 2cbf 9fcf d53d 4f0a 843e
00000160: f4d7 b73e e842 e9be 931c 033f 5882 51bf
00000170: 0fc2 1f3f 9c12 4b3f 24f6 0e3f a42f 4ebf
00000180: 9880 183e 3875 e03e 4119 91be 8008 c1bd
00000190: 8dc3 42bf 5f2f 053f 8021 333f 822d 81be
000001a0: fb0e d03e 1267 abbe 5875 343f aa4b 903e
000001b0: 107d 3fbd 40e3 de3c db78 e0be 3b23 633e
000001c0: 44d0 fb3e 7643 8b3e b141 1d3f 71c2 df3e
000001d0: e368 213f a844 16bf f67c 0cbf 941d 95be
000001e0: d268 1e3f c33d a83e 55e4 8abe af34 3f3f
000001f0: f178 b13d ec92 d83e 5ac3 05bf 1ec4 99be

fc1.bias f4 [64]
-0.4907165 0.18000095 0.2888828 0.3284579 -0.30760503 -0.024257047 0.30250853 -0.6753109
0.13370065 -0.1447274 0.25374845 0.5463021 0.5140277 -0.4331671 0.63037914 -0.0039746603
0.24708623 -0.11563157 -0.52577925 -0.64831614 -0.46473297 -0.068861455 -0.6793471 -0.04827748
-0.42811552 0.3532778 0.31341064 0.67462486 0.40369323 -0.16634853 0.54475266 0.07366748
0.38221154 0.5615516 0.13843186 -0.03657598 -0.104232855 -0.046299223 0.5237132 0.046582196
0.3749597 -0.3630027 -0.13046965 0.510967 -0.09597513 -0.15829451 0.5510633 -0.3903375
-0.06769444 0.69331485 -0.139868 -0.02526022 0.51549613 -0.16790144 -0.16895592 0.07500302
-0.20496659 0.01180228 -0.2313953 0.17700455 -0.2735947 -0.26999584 0.22759756 0.6147688
00000000: 313f fbbe 2b52 383e 72e8 933e a22b a83e
00000010: 687e 9dbe b7b6 c6bc 66e2 9a3e 2de1 2cbf
00000020: d3e8 083e 6b33 14be 51eb 813e 74da 0b3f
00000030: 5297 033f 14c8 ddbe 8760 213f de3d 82bb
00000040: 2c04 7d3e 3fd0 ecbd 7899 06bf 0cf8 25bf
00000050: 7bf1 edbe 3c07 8dbd b1e9 2dbf 9bbe 45bd
00000060: f531 dbbe d4e0 b43e 5c77 a03e 37b4 2c3f
00000070: e1b0 ce3e 4557 2abe e974 0b3f fade 963d
00000080: 3bb1 c33e d8c1 0f3f 15c1 0d3e b2d0 15bd
00000090: 0978 d5bd 41a4 3dbd 1112 063f f9cc 3e3d
000000a0: b8fa bf3e 7ddb b9be d699 05be bcce 023f
000000b0: 9c8e c4bd f517 22be 7c12 0d3f 51da c7be
000000c0: 62a3 8abd 157d 313f 8f39 0fbe 85ee cebc
000000d0: 8ef7 033f 5bee 2bbe c802 2dbe 2f9b 993d
000000e0: c3e2 51be 5a5e 413c e4f2 6cbe ae40 353e
000000f0: 9b14 8cbe e53c 8abe 560f 693e 7d61 1d3f

fc2.weight f4 [2, 64]
-0.06722868 0.007018778 -0.03236035 -0.12981491 -0.06589991 -0.11757167 0.028457943 0.115440235
0.050572675 -0.055236075 0.059025057 -0.013941775 -0.04632338 -0.12220965 0.09266197 -0.14108549
0.13419572 -0.18365249 -0.17780508 0.1120425 -0.026674733 -0.16331372 0.08012344 -0.0764041
-0.2535917 0.050759472 -0.13427487 0.02503963 0.04766737 0.015015201 0.09113469 0.018388279
-0.15917495 0.09925723 -0.15841262 -0.18410793 -0.037435066 0.021930674 -0.024969928 -0.017825332
-0.104880795 0.053432334 -0.19848631 0.11877846 -0.032783918 -0.06284581 -0.14682072 -0.116267316
-0.1514974 0.09071819 -0.16750942 -0.1078157 0.13052428 -0.18152936 0.10034296 -0.010787605
-0.19034992 0.02310564 -0.11862544 -0.040661726 -0.12358291 -0.23692027 0.034680758 0.1379981
-0.07926244 0.029894117 0.022974692 0.034585275 0.044042565 0.20296331 -0.04343459 -0.031511202
0.11170466 0.09608817 -0.04254053 -0.12059243 -0.0679028 0.012761012 0.07897572 0.07728409
-0.15003893 0.2216419 0.23266597 0.07807009 -0.04195702 0.20401335 -0.069501445 0.20300794
0.22423592 0.039505053 -0.067101315 -0.09322019 -0.056415223 -0.017223356 -0.11192154 0.18975748
-0.021851486 0.021311319 -0.05732628 0.17362143 -0.010842478 0.1903018 -0.13526392 0.009928467
-0.07631764 -0.039737288 0.13287356 -0.05084938 0.13507506 0.16124453 0.036428537 0.12831114
0.060213134 -0.044955928 0.121954724 0.15378712 -0.13146265 0.021891348 0.08899517 0.08327278
0.17804272 0.09823983 0.12743716 0.111083105 0.10888374 0.028261373 0.028947141 0.0006092555
00000000: 31af 89bd c7fd e53b 498c 04bd 33ee 04be
00000010: 88f6 86bd 6ac9 f0bd a220 e93c ee6b ec3d
00000020: 4b25 4f3d 393f 62bd 42c4 713d 0b6c 64bc
00000030: 96bd 3dbd 0e49 fabd 8fc5 bd3d b778 10be
00000040: 9a6a 093e 660f 3cbe 8912 36be 8a76 e53d
00000050: f884 dabc b63b 27be c217 a43d c179 9cbd
00000060: c5d6 81be 2ae9 4f3d 5a7f 09be e91f cd3c
00000070: dc3e 433d 5102 763c d3a4 ba3d 04a3 963c
00000080: c2fe 22be 6047 cb3d eb36 22be ca86 3cbe
00000090: 8355 19bd f5a7 b33c bc8d ccbc 6e06 92bc
000000a0: becb d6bd dddb 5a3d ff3f 4bbe 1f42 f33d
000000b0: 6e48 06bd 4eb5 80bd 2c58 16be 8f1d eebd
000000c0: 2222 1bbe 75ca b93d 9787 2bbe 7ace dcbd
000000d0: 28a8 053e d5e2 39be 9c80 cd3d 7fbe 30bc
000000e0: 17eb 42be 0a48 bd3c e5f1 f2bd e98c 26bd
000000f0: 0919 fdbd 3a9b 72be 690d 0e3d 604f 0d3e
00000100: 5954 a2bd 82e4 f43c 6c35 bc3c 4aa9 0d3d
00000110: fa65 343d 9dd5 4f3e 78e8 31bd e411 01bd
00000120: 6ac5 e43d e0c9 c43d fb3e 2ebd 2af9 f6bd
00000130: a010 8bbd 9013 513c 06be a13d 1f47 9e3d
00000140: cea3 19be 18f6 623e fd3f 6e3e 36e3 9f3d
00000150: 20db 2bbd e0e8 503e c656 8ebd 50e1 4f3e
00000160: 1a9e 653e 0dd0 213d 6a6c 89bd 3aea bebd
00000170: a613 67bd ff17 8dbc 1f37 e5bd c94f 423e
00000180: e301 b3bc 1395 ae3c f6ce 6abd d1c9 313e
00000190: a6a4 31bc 7ade 423e a082 0abe 02ab 223c
000001a0: 6c4c 9cbd 91c3 22bd 0210 083e 7147 50bd
000001b0: 1e51 0a3e 491d 253e 1736 153d ff63 033e
000001c0: 0ca2 763d b523 38bd 66c3 f93d 5f7a 1d3e
000001d0: 259e 06be 7c55 b33c 1a43 b63d eb8a aa3d
000001e0: d550 363e f731 c93d e37e 023e 8a7f e33d
000001f0: 70fe de3d 6584 e73c 8e22 ed3c 72b6 1f3a

fc2.bias f4 [2]
-0.037184697 -0.081624925
00000000: fb4e 18bd f82a a7bd
